Deeplearning/net.pt (torch, 345938 bytes, 6 tensors)

weight f4 [100, 784]
-0.08047632 -0.12531455 -0.07546873 0.010032441 -0.09174542 -0.19609846 -0.0372875 -0.14988656
-0.06868956 0.086722404 -0.08988548 0.05995002 -0.018698724 -0.014927947 0.036201958 -0.13874565
0.12434382 0.07669261 0.019316928 -0.027429057 0.023186883 0.16730705 0.019967712 0.06180015
0.11336621 0.0750353 0.19666319 0.023240007 -0.08451776 -0.06445048 -0.11057778 -0.18849266
-0.104461774 0.02100426 -0.15256894 0.017809527 -0.0011966277 -0.119297795 0.058901325 -0.01638178
-0.08339315 -0.056415565 -0.08653677 -0.025058558 0.005550094 0.20289844 0.1477428 0.06725408
-0.019830516 0.14576848 0.09250802 0.04708241 0.006490147 0.09569882 0.0935122 0.05475352
0.018589228 -0.07873127 -0.10975915 0.07927015 -0.23917922 -0.15117137 -0.046284333 -0.06645424
-0.017724311 0.0029168637 -0.11489478 -0.09382826 -0.035300765 -0.044809923 0.072680816 0.10631087
0.17596076 0.105803266 0.110215805 0.12497287 0.07185916 0.09801794 0.05718806 0.035472304
0.21351442 0.13178506 0.054871984 0.13099788 -0.08904101 -0.0040298067 -0.06466266 -0.10783945
-0.09598191 0.0069750515 -0.07581327 -0.07285217 -0.033196628 0.048146073 0.034934916 -0.074297115
-0.020557148 0.047951993 0.057664547 -0.00865127 0.02483542 0.06199691 0.09493202 0.08622744
0.14067712 0.16865718 0.13708676 0.11620621 0.12895674 0.06347668 0.11421689 0.037699603
-0.14657037 -0.020277806 -0.07388475 -0.10540334 -0.100764535 -0.08389743 -0.15097103 -0.067444645
-0.070311114 -0.014902082 0.041316465 0.058053836 0.053378657 0.05395615 0.037220463 0.030760545
0.03096901 0.045027725 0.09710198 0.08285577 0.13029182 0.19636466 0.16404983 0.16693768
0.14506744 0.087462336 0.054184195 0.13359082 -0.08305902 -0.00380702 -0.0073954514 -0.05120561
-0.13747405 -0.091515794 -0.11247918 -0.083316624 -0.051507022 0.0050095916 0.086336404 0.10261245
0.049701467 0.087270245 0.06607697 0.048327144 0.09084108 0.066019244 0.13256206 0.14960535
0.13073312 0.09405847 0.068822786 0.122068584 0.12142329 0.10642972 0.17873082 0.13861866
-0.13114561 -0.12432255 -0.020798204 -0.11091104 -0.040595643 -0.09798775 -0.037687637 -0.027577527
0.014948893 0.021150514 0.027569173 0.03377575 0.06969237 0.0035992248 -0.00066516467 0.0706797
0.0858676 0.12611046 0.16615528 0.1709443 0.16157408 0.08683605 0.008615104 0.033697844
0.12809671 0.10720414 0.13992758 0.031838488 -0.06725891 -0.12449605 -0.0076882862 -0.039603163
-0.1342863 -0.061951406 -0.007930344 0.030573837 0.031027535 0.092716694 0.05240768 0.10679492
0.06270723 0.010830833 0.034830935 0.078874126 0.041959215 0.09664295 0.110110566 0.12502177
0.0541886 -0.10076603 -0.13240092 -0.13600363 -0.06533879 0.09841404 0.082287304 0.13972156
-0.13149367 -0.011131116 -0.041712236 -0.117992826 -0.10481384 -0.0025634996 0.043675836 0.03366515
0.039571963 0.11777576 0.069357574 0.10950361 0.06202381 -0.016285963 -0.07981924 -0.15376936
-0.23831339 -0.25112662 -0.19805919 -0.1974514 -0.25184223 -0.29908177 -0.31314245 -0.14504243
-0.08684129 -0.024836548 0.07598479 -0.0034200228 -0.036184378 -0.03414543 -0.011644502 -0.101896375
00000000: c5d0 a4bd 7552 00be 598f 9abd 1b5f 243c
00000010: 06e5 bbbd 09ce 48be c7ba 18bd dd7b 19be
00000020: 1dad 8cbd 849b b13d e115 b8bd 278e 753d
00000030: 112e 99bc 5994 74bc 8148 143d 5713 0ebe
00000040: f9a7 fe3d 0411 9d3d 893e 9e3c e7b2 e0bc
00000050: 6bf2 bd3c 8a52 2b3e 5493 a33c 2722 7d3d
00000060: 8b2c e83d 1bac 993d 1362 493e d461 be3c
00000070: a617 adbd 9dfe 83bd 9a76 e2bd 3804 41be
00000080: 0ef0 d5bd 2011 ac3c 083b 1cbe 49e5 913c
00000090: 2ad8 9cba 6752 f4bd 8442 713d 1533 86bc
000000a0: 07ca aabd 0214 67bd 313a b1bd 9b47 cdbc
000000b0: 90dd b53b 9cc4 4f3e e349 173e 82bc 893d
000000c0: 9b73 a2bc 5544 153e d874 bd3d 7cd9 403d
000000d0: 4dab d43b befd c33d 5383 bf3d 3a45 603d
000000e0: 7048 983c dc3d a1bd 68c9 e0bd 6358 a23d
000000f0: 66eb 74be abcc 1abe a494 3dbd 2919 88bd
00000100: 9332 91bc da28 3f3b f44d ebbd 0829 c0bd
00000110: 8997 10bd 9c8a 37bd aed9 943d 83b9 d93d
00000120: 0f2f 343e 62af d83d d3b8 e13d c7f1 ff3d
00000130: e52a 933d a1bd c83d 073e 6a3d 684b 113d
00000140: 86a3 5a3e aaf2 063e 72c1 603d 4f24 063e
00000150: 225b b6bd 780c 84bb db6d 84bd eeda dcbd
00000160: 2a92 c4bd f98e e43b fd43 9bbd 8533 95bd
00000170: 30f9 07bd d134 453d ea17 0f3d 1629 98bd
00000180: 7767 a8bc 4f69 443d a931 6c3d 0ebe 0dbc
00000190: a773 cb3c 79f0 7d3d b86b c23d 0398 b03d
000001a0: aa0d 103e 78b4 2c3e 7960 0c3e 85fd ed3d
000001b0: 3c0d 043e 1000 823d 8bea e93d e66a 1a3d
000001c0: 8b16 16be a41d a6bc e350 97bd b5dd d7bd
000001d0: a35d cebd 6ad2 abbd 2698 1abe 6b20 8abd
000001e0: 46ff 8fbd dd27 74bc 743b 293d dcc9 6d3d
000001f0: 94a3 5a3d 2001 5d3d 7c74 183d 8afd fb3c
00000200: b9b2 fd3c fe6e 383d 67dd c63d 49b0 a93d
00000210: 386b 053e d113 493e aefc 273e b6f1 2a3e
00000220: 8f8c 143e 741f b33d 3ff0 5d3d 08cc 083e
00000230: d91a aabd 327f 79bb 8b55 f2bb f9bc 51bd
00000240: ffc5 0cbe a26c bbbd 7c5b e6bd e8a1 aabd
00000250: 07f9 52bd 8027 a43b 24d1 b03d 7a26 d23d
00000260: c493 4b3d beba b23d 5d53 873d aff2 453d
00000270: e30a ba3d 1935 873d 59be 073e 2532 193e
00000280: e7de 053e baa1 c03d f6f2 8c3d 18ff f93d
00000290: c6ac f83d d3f7 d93d 3605 373e 0df2 0d3e
000002a0: 094b 06be d29c febd ff60 aabc 5425 e3bd
000002b0: 9e47 26bd cdad c8bd 5a5e 1abd 44ea e1bc
000002c0: 34ec 743c d843 ad3c bfd8 e13c 7158 0a3d
000002d0: e0ba 8e3d f9e0 6b3b 725e 2eba 85c0 903d
000002e0: 5adb af3d 1a23 013e 9c24 2a3e 060c 2f3e
000002f0: ad73 253e 19d7 b13d 5d26 0d3c c006 0a3d
00000300: c92b 033e d88d db3d 2d49 0f3e 1369 023d
00000310: 0abf 89bd c9f7 febd 05ee fbbb ed36 22bd
00000320: 5982 09be c2c0 7dbd 46ee 01bc fc75 fa3c
00000330: 752d fe3c 40e2 bd3d 6fa9 563d 4cb7 da3d
00000340: a66c 803d ce73 313c e2aa 0e3d c288 a13d
00000350: 6ddd 2b3d bdec c53d a681 e13d b505 003e
00000360: def4 5d3d 6c5e cebd 1b94 07be 8944 0bbe
00000370: 58d0 85bd 4d8d c93d 3f86 a83d 2b13 0f3e
00000380: 47a6 06be 495f 36bc 73da 2abd 39a6 f1bd
00000390: a3a8 d6bd 6300 28bb 6fe5 323d 78e4 093d
000003a0: 3616 223d 6b34 f13d 580b 8e3d 6e43 e03d
000003b0: ae0c 7e3d 246a 85bc 4578 a3bd b775 1dbe
000003c0: 6d08 74be ab93 80be 07d0 4abe b330 4abe
000003d0: 77f1 80be 3f21 99be 3554 a0be 0186 14be
000003e0: d9d9 b1bd 0476 cbbc ea9d 9b3d 7622 60bb
000003f0: 1236 14bd 14dc 0bbd 95c8 3ebc 0caf d0bd

bias f4 [100]
0.014200166 0.07114201 -0.02495236 0.04373576 -0.0032392335 -0.022788068 0.019957239 0.03013171
-0.03652061 0.017380163 -0.0015640272 -0.02317717 0.01735941 -0.02501476 -0.017232133 0.024065543
0.13921167 0.023737134 0.042569228 0.15950564 0.03126559 0.06481071 0.039394405 0.085298605
0.062737845 0.012972415 0.015582354 0.054493215 0.02095066 0.045888238 0.03915794 0.09680551
0.04057562 0.04154105 0.051540233 0.048826404 0.024831329 0.0059776567 0.020451948 0.020575983
0.062730886 0.07292173 0.005895001 0.09673938 0.027929101 0.12196946 -0.056122802 0.023783907
-0.044399474 0.020950124 0.03391213 -0.07788934 0.0004100252 -0.022622656 -0.08900661 0.041084513
0.0049287053 -0.036523238 0.1663213 0.051693186 -0.04462089 0.065832354 -0.0002961152 0.020561479
0.050071098 0.038867608 -0.04507199 0.014185518 0.0222707 0.09477481 0.04327918 0.080833375
-0.009531093 0.16867553 -0.033253033 -0.061245836 0.077797346 -0.008427652 0.05110674 -0.034553498
0.0032586993 0.031207189 -0.064322524 0.054869376 0.04766953 -0.0035349512 0.027834302 -0.052772604
0.02836039 -0.00667475 0.08241731 0.025631394 -0.047869015 -0.012825753 -0.058152035 0.006123159
0.08325216 0.01275532 0.02103985 -0.040726542
00000000: d0a7 683c e7b2 913d e468 ccbc 4524 333d
00000010: 5249 54bb 0bae babc 5d7d a33c c7d6 f63c
00000020: a396 15bd d860 8e3c 0b00 cdba 0cde bdbc
00000030: 5235 8e3c c1eb ccbc 672a 8dbc 1a25 c53c
00000040: 818d 0e3e 6174 c23c 125d 2e3d 7255 233e
00000050: 5910 003d 7abb 843d 075c 213d 09b1 ae3d
00000060: b37c 803d 418a 543c 214d 7f3c 4734 5f3d
00000070: b8a0 ab3c 4ef5 3b3d 1364 203d f841 c63d
00000080: 9f32 263d f326 2a3d da1b 533d 32fe 473d
00000090: 126b cb3c 38e0 c33b d88a a73c f78e a83c
000000a0: 0d79 803d fd57 953d da2a c13b 4c1f c63d
000000b0: 92cb e43c 20cb f93d 06e1 65bd 78d6 c23c
000000c0: 39dc 35bd 989f ab3c 72e7 0a3d 7284 9fbd
000000d0: a7f8 d639 2653 b9bc 1949 b6bd 3c48 283d
000000e0: fa80 a13b 6499 15bd 2250 2a3e 3cbc 533d
000000f0: 65c4 36bd 1dd3 863d e93f 9bb9 8c70 a83c
00000100: 5a17 4d3d a433 1f3d 689d 38bd 606a 683c
00000110: 0b71 b63c 4c19 c23d 8245 313d f88b a53d
00000120: 4d28 1cbc 47b9 2c3e 5534 08bd eadc 7abd
00000130: 3754 9f3d 2214 0abc 4d55 513d f887 0dbd
00000140: e78f 553b 38a6 ff3c 87bb 83bd b6be 603d
00000150: 2041 433d a4aa 67bb c304 e43c 1628 58bd
00000160: 0c54 e83c dcb7 dabb 68ca a83d eef8 d13c
00000170: 4d12 44bd 1b23 52bc d430 6ebd c8a4 c83b
00000180: 1c80 aa3d b1fb 503c c35b ac3c e0d0 26bd

weight f4 [52, 100]
0.017899185 0.06429453 -0.015156169 -0.09136123 0.034797505 0.052690387 0.05725444 0.019643107
0.058173284 0.027805667 -0.016683618 -0.020977136 0.045170356 -0.03262205 -0.10244272 -0.09546837
-0.09276685 -0.083841845 -0.08069912 0.0020024686 -0.017764563 -0.017591856 0.023953602 -0.035477143
0.08987647 -0.11458671 0.0691564 -0.08684034 0.011633558 -0.118728615 -0.016812786 -0.09137385
-0.09908333 0.025249342 0.05615116 0.028135354 -0.010559586 0.048456583 -0.07076991 -0.11202006
-0.041812483 -0.113568895 0.023401499 0.056892313 -0.06875006 0.040369097 0.054008104 0.021524442
0.06597492 -0.09692884 -0.07703522 -0.006181544 -0.031348374 -0.10731089 -0.014382741 0.03172652
0.013262349 -0.0629771 -0.099201836 -0.047249537 -0.04603994 -0.0286227 -0.08475029 -0.05072546
-0.0022712678 -0.009809704 -0.008052184 -0.01242434 -0.09505197 0.039969925 0.030428449 0.03948597
0.068182506 0.02250663 -0.02743363 0.061817233 0.036755685 -0.041293968 0.020667775 0.007177626
-0.044037666 0.04273428 -0.08758879 -0.09832043 -0.00979185 -0.123444445 0.010218938 0.011898022
-0.051835153 -0.1073301 -0.024424566 0.0143251065 0.010954249 0.03352677 -0.042598546 -0.09758025
-0.078795254 -0.07571614 0.070884265 0.054290034 0.16887473 0.1566665 -0.10306911 -0.12483353
-0.07451908 -0.030994857 -0.13697462 0.123473085 -0.01689805 -0.09966916 -0.24968183 -0.0013635111
0.10837271 -0.055125814 -0.06390559 0.1205566 -0.042037413 0.11260052 0.103269435 0.18613665
-0.030005414 0.01871492 0.087846205 -0.082009576 -0.10556939 0.023633052 0.044564605 -0.01379618
0.045664914 0.03689147 0.045752343 0.15208682 0.16932869 -0.06998833 0.11874821 0.1002103
0.124703795 -0.07678986 -0.12214216 -0.054319985 0.3087259 0.2650968 0.10991137 0.10146637
0.118702956 0.03474994 0.093099125 -0.029430859 0.074048884 0.07877203 -0.07722994 0.098760314
-0.0011898845 0.018944498 -0.117717445 0.039871074 -0.026121275 -0.09473054 0.22113757 -0.08930848
-0.04311207 0.09441845 0.09284276 0.1433225 -0.19248962 0.10178349 -0.022806767 -0.19386865
-0.18779124 0.037836734 0.1492833 -0.008097967 -0.11614935 0.030918129 -0.07111157 0.029461091
-0.027471412 -0.024037126 0.15618952 0.18371683 0.0736872 0.119301036 -0.15860607 -0.04671008
0.014799576 0.11029191 -0.08367336 0.11255013 -0.05099224 -0.1164668 -0.3582394 -0.122937545
-0.04699571 -0.039865445 -0.21764581 -0.0070313313 0.12278145 -0.08618757 0.1337715 0.05475465
-0.05099152 -0.15663734 0.23123184 -0.09929447 0.19479977 0.083964854 -0.02074649 -0.1880884
0.022936396 -0.03659943 0.14734197 0.07860532 0.28373572 -0.014017063 0.009735723 -0.26650524
-0.0719327 -0.07276967 -0.019725041 0.06722673 -0.15128219 -0.08978086 -0.0020166554 0.18882227
0.15209989 -0.16465054 -0.04948183 -0.2381812 0.007839184 -0.06019389 0.1285696 -0.17722878
-0.042007316 0.0062542544 -0.00055067166 -0.019007284 -0.13040271 0.06392836 0.02362592 -0.047889777
0.10818916 -0.09272371 0.0758185 -0.030948672 -0.17731279 0.035260737 0.07945684 0.045045286
-0.012352096 -0.10379919 -0.035672463 -0.21291053 0.026606366 0.17529953 0.15960315 -0.033016507
00000000: 50a1 923c daac 833d 9551 78bc 991b bbbd
00000010: d487 0e3d e0d1 573d a283 6a3d 95ea a03c
00000020: 1c47 6e3d b6c8 e33c 15ac 88bc 3ed8 abbc
00000030: 8d04 393d b39e 05bd 7dcd d1bd ec84 c3bd
00000040: 8cfc bdbd 46b5 abbd 9545 a5bd d93b 033b
00000050: fd86 91bc cc1c 90bc 583a c43c 7b50 11bd
00000060: 2811 b83d 70ac eabd dfa1 8d3d 59d9 b1bd
00000070: ae9a 3e3c fd27 f3bd f8ba 89bc 3722 bbbd
00000080: 33ec cabd b5d7 ce3c c2fe 653d 1d7c e63c
00000090: 1d02 2dbc 697a 463d d1ef 90bd c66a e5bd
000000a0: 9143 2bbd cf96 e8bd 80b4 bf3c ea07 693d
000000b0: d5cc 8cbd 115a 253d 9a37 5d3d 0754 b03c
000000c0: dc1d 873d a182 c6bd a4c4 9dbd 8d8e cabb
000000d0: 2767 00bd d0c5 dbbd 97a5 6bbc abf3 013d
000000e0: 534a 593c 23fa 80bd 552a cbbd bb88 41bd
000000f0: 6094 3cbd 277a eabc 8f91 adbd 80c5 4fbd
00000100: 8dd9 14bb e1b8 20bc 4fed 03bc 758f 4bbc
00000110: 9baa c2bd 81b7 233d 1545 f93c 0abc 213d
00000120: 45a3 8b3d d35f b83c 7ebc e0bc 1134 7d3d
00000130: 218d 163d dd23 29bd 774f a93c 4a32 eb3b
00000140: d760 34bd 240a 2f3d c061 b3bd 395c c9bd
00000150: ff6d 20bc 71d0 fcbd 556d 273c ecef 423c
00000160: 1951 54bd e2cf dbbd 0716 c8bc dab3 6a3c
00000170: 7379 333c 5e53 093d d07b 2ebd 27d8 c7bd
00000180: 685f a1bd 1011 9bbd c52b 913d 3a5f 5e3d
00000190: 7fed 2c3e 2f6d 203e e615 d3bd b9a8 ffbd
000001a0: 769d 98bd ede8 fdbc 1343 0cbe 75df fc3d
000001b0: c86d 8abc 581f ccbd 98ac 7fbe d7b7 b2ba
000001c0: 83f2 dd3d 9bcb 61bd efe0 82bd 61e6 f63d
000001d0: 6c2f 2cbd 1a9b e63d ed7e d33d 9b9a 3e3e
000001e0: eacd f5bc 0850 993c b6e8 b33d a3f4 a7bd
000001f0: c434 d8bd 1a9a c13c 6089 363d 5f09 62bc
00000200: 220b 3b3d 831b 173d cf66 3b3d a6bc 1b3e
00000210: 8064 2d3e 0b56 8fbd 4332 f33d 0f3b cd3d
00000220: b464 ff3d 0144 9dbd ab25 fabd a27e 5ebd
00000230: 5211 9e3e c5ba 873e 3619 e13d 9acd cf3d
00000240: 891a f33d f455 0e3d c1aa be3d fc18 f1bc
00000250: f1a6 973d 3b53 a13d bb2a 9ebd d942 ca3d
00000260: e6f5 9bba 7e31 9b3c d815 f1bd da4f 233d
00000270: 49fc d5bc 1602 c2bd e371 623e 5de7 b6bd
00000280: 4896 30bd 765e c13d 5824 be3d 22c3 123e
00000290: 001c 45be dd73 d03d 42d5 babc 8185 46be
000002a0: 594c 40be b1fa 1a3d b9dd 183e 56ad 04bc
000002b0: b6df edbd 0448 fd3c f1a2 91bd 6358 f13c
000002c0: ba0b e1bc 82e9 c4bc 25f0 1f3e 4420 3c3e
000002d0: 51e9 963d 1a54 f43d a169 22be 1253 3fbd
000002e0: ec79 723c bae0 e13d f05c abbd af80 e63d
000002f0: 3ddd 50bd 2586 eebd 286b b7be aec6 fbbd
00000300: 937e 40bd f349 23bd 8bde 5ebe 1567 e6bb
00000310: d774 fb3d 1c83 b0bd 65fb 083e 6946 603d
00000320: 7cdc 50bd 8a65 20be 0ac8 6c3e e65a cbbd
00000330: 9779 473e c4f5 ab3d 8bf4 a9bc 3f9a 40be
00000340: 1ce5 bb3c 49e9 15bd d0e0 163e d3fb a03d
00000350: cf45 913e d3a7 65bc 9582 1f3c 6073 88be
00000360: 7451 93bd 4408 95bd 6996 a1bc 2bae 893d
00000370: b8e9 1abe 07df b7bd dd29 04bb a05a 413e
00000380: 13c0 1b3e 279a 28be 76ad 4abd c6e5 73be
00000390: ec6f 003c de8d 76bd c0a7 033e 767b 35be
000003a0: dd0f 2cbd 7df0 cc3b f35a 10ba 2ab5 9bbc
000003b0: 4a88 05be dfec 823d 258b c13c 1228 44bd
000003c0: 4792 dd3d eee5 bdbd bb46 9b3d 1288 fdbc
000003d0: 7c91 35be 906d 103d 45ba a23d 6881 383d
000003e0: 7260 4abc ab94 d4bd 4a1d 12bd 3805 5abe
000003f0: 98f5 d93c b881 333e 026f 233e 513c 07bd

bias f4 [52]
-0.08558408 0.116937704 -0.10519424 0.092781916 -0.085512616 -0.07163831 -0.043263976 -0.068165384
-0.012693162 0.058824275 0.0015479358 -0.04299037 0.10736075 0.0766734 0.03595139 0.17381273
-0.0018786574 0.10694262 -0.0060093403 -0.014390372 -0.025446313 0.13370116 0.09030912 -0.057409238
0.02144347 0.18362385 0.038822025 0.107591525 0.07195582 -0.066915326 0.20269279 0.0062919715
-0.06624172 0.17698105 0.05745794 -0.049914535 -0.010560876 0.037932653 0.13810979 0.08556146
0.0338655 -0.077741094 0.023803102 0.045986563 0.011316851 0.050679896 0.13965665 -0.030888941
0.010357397 -0.13848984 -0.04876266 0.12433956
00000000: b546 afbd 097d ef3d 1470 d7bd 7204 be3d
00000010: 3d21 afbd 1bb7 92bd 9135 31bd 4b9a 8bbd
00000020: fbf6 4fbc b9f1 703d 1be4 ca3a ac16 30bd
00000030: f4df db3d f206 9d3d c441 133d f7fb 313e
00000040: 483d f6ba bb04 db3d 00ea c4bb 98c5 6bbc
00000050: c974 d0bc f5e8 083e fdf3 b83d f325 6bbd
00000060: 37aa af3c e407 3c3e d803 1f3d f258 dc3d
00000070: 935d 933d e70a 89bd b38e 4f3e e22c ce3b
00000080: bda9 87bd 853a 353e 0459 6b3d 2f73 4cbd
00000090: 8607 2dbc 455f 1b3d a76c 0d3e d93a af3d
000000a0: 8db6 0a3d b936 9fbd b9fe c23c 685c 3c3d
000000b0: 506a 393c b995 4f3d 2702 0f3e ce0a fdbc
000000c0: 12b2 293c 48d0 0dbe 5bbb 47bd bda5 fe3d

weight f4 [10, 52]
0.093392834 0.19089982 0.056189913 -0.017823268 -0.0052967453 -0.08265538 0.009182457 0.021147253
0.26600486 -0.10605352 -0.03256646 0.15202956 -0.0074766832 0.159257 -0.26521507 -0.12599829
0.10937823 0.14483133 -0.10333921 -0.030769326 -0.007046652 -0.029401507 -0.16625768 0.044402953
-0.23242201 -0.10246793 0.13104305 0.05844013 0.07287029 -0.23631997 -0.26127273 -0.11393057
-0.23930632 -0.048743892 -0.27214792 -0.03410128 -0.030489163 -0.003012697 -0.028567262 0.1755922
-0.032908253 -0.09271745 0.008884035 0.043355227 -0.09590474 -0.04745121 -0.07818185 -0.13504189
-0.35271552 0.20414354 0.17749926 0.16991135 0.06993401 -0.26231238 0.46000394 0.1363499
-0.22055519 -0.14334473 0.10041146 0.04230553 -0.20026207 -0.2853755 -0.16556507 0.128328
-0.1988467 -0.33910248 0.1439665 0.18877131 -0.18349642 -0.17960835 -0.25276282 -0.15957217
0.0585494 -0.08145289 0.0738531 0.082314685 0.040016197 -0.2765797 0.12572214 -0.12649643
0.0014536879 -0.08704309 0.12961644 -0.0032661378 0.1822659 -0.040917445 0.15006684 -0.2578525
-0.21764605 0.0860587 -0.16149631 0.035819184 -0.22644323 -0.10333401 0.14835812 -0.35099474
-0.25190914 0.16963361 -0.27791932 0.17503513 0.099451624 -0.23688012 -0.19919239 -0.23943576
-0.00971911 -0.16185784 -0.20083447 0.032646414 0.121191606 -0.24944375 -0.16250148 -0.008525171
0.092186704 0.22989161 0.10319702 -0.069704816 0.019276818 -0.032013215 0.19241782 0.17074026
-0.046016265 -0.08207637 0.117789984 -0.12252564 -0.0397206 0.18292116 0.11696686 0.01169473
0.24387118 0.03005484 -0.22301716 0.07378805 0.01333774 -0.12995641 -0.19100837 -0.14636628
-0.22028477 0.12678482 -0.101840116 -0.15386201 0.103528485 -0.25611153 0.07082571 0.15385857
-0.044985548 0.10085338 0.1359117 -0.13868292 -0.15592137 -0.033683933 -0.22779524 -0.06478878
-0.037612464 -0.03923983 0.18153626 -0.22671925 0.11134863 -0.15667869 -0.051244535 0.14382847
0.13250464 -0.22042474 0.11826651 0.25154322 -0.054427315 -0.12583907 0.11664072 -0.17122954
-0.10241827 -0.060948648 0.04277512 0.0037852009 -0.033994485 -0.21307151 0.1320792 0.04539158
-0.10365311 -0.089535676 0.17426984 0.079406366 -0.21801959 -0.2583352 -0.24501263 -0.15632434
0.18289183 0.13047364 -0.042305864 0.16905388 0.19795024 0.0053861807 -0.28325075 0.117240824
-0.0071621425 -0.1117039 -0.2542664 0.00035115256 -0.1924692 -0.11828486 -0.14457116 0.17122072
-0.20523219 0.10103353 -0.045609128 0.17058705 0.014507897 -0.021891259 0.15007979 0.08000136
0.11652683 -0.15223229 -0.071292095 0.18188326 0.04289486 0.00855568 0.06991161 -0.20759912
-0.19781877 -0.17259601 0.1467593 -0.26668346 0.13470244 -0.05430275 -0.24220893 -0.1360119
0.19979502 -0.09594781 0.17088711 -0.12557535 -0.05842979 -0.033694938 -0.2986463 -0.22772774
-0.23040031 0.18764429 -0.12362695 0.17688428 -0.24256214 0.022498304 0.07638055 0.03737346
0.024775106 0.19679949 0.11019354 -0.11290222 -0.11808526 -0.067138515 0.1414065 -0.266513
0.03502557 -0.15377715 0.15956683 -0.23197325 -0.119263195 0.15806875 0.22180168 -0.26176116
00000000: be44 bf3d 3e7b 433e 6527 663d 1a02 92bc
00000010: 5290 adbb 3947 a9bd 0472 163c 013d ad3c
00000020: ca31 883e 9732 d9bd 6964 05bd a3ad 1b3e
00000030: f7fe f4bb 4414 233e 45ca 87be b205 01be
00000040: b201 e03d aa4e 143e 82a3 d3bd f40f fcbc
00000050: 9ae7 e6bb 6edb f0bc 743f 2abe dfdf 353d
00000060: 0900 6ebe b5da d1bd 2630 063e eb5e 6f3d
00000070: 053d 953d ddfd 71be 8ac5 85be 6e54 e9bd
00000080: b70c 75be ada7 47bd f956 8bbe c9ad 0bbd
00000090: 69c4 f9bc ab70 45bb e405 eabc 71ce 333e
000000a0: ceca 06bd a5e2 bdbd 588e 113c 4095 313d
000000b0: b469 c4bd 335c 42bd ce1d a0bd 6c48 0abe
000000c0: 2197 b4be 010b 513e 5ec2 353e 3efd 2d3e
000000d0: 9039 8f3d cf4d 86be a385 eb3e 4f9f 0b3e
000000e0: 38d9 61be f6c8 12be 86a4 cd3d 9048 2d3d
000000f0: 8011 4dbe bd1c 92be e489 29be 6a68 033e
00000100: 789e 4bbe d79e adbe f46b 133e 444d 413e
00000110: 7ce6 3bbe 40eb 37be 216a 81be e366 23be
00000120: 7fd1 6f3d c6d0 a6bd 4b40 973d 9a94 a83d
00000130: 06e8 233d db9b 8dbe 4ebd 003e 4888 01be
00000140: ac89 be3a a643 b2bd 2cba 043e b30c 56bb
00000150: e9a3 3a3e 0d99 27bd 1fab 193e 3e05 84be
00000160: 9bde 5ebe 8b3f b03d 4a5f 25be 23b7 123d
00000170: bce0 67be c8a0 d3bd 31eb 173e 95b5 b3be
00000180: 3cfa 80be 6fb4 2d3e 714b 8ebe 693c 333e
00000190: 4bad cb3d b490 72be 17f9 4bbe a62e 75be
000001a0: e73c 1fbc 10be 25be 8da7 4dbe 3fb8 053d
000001b0: 4e33 f83d 2f6e 7fbe ca66 26be 29ad 0bbc
000001c0: 62cc bc3d b568 6b3e f658 d33d 66c1 8ebd
000001d0: 6bea 9d3c 4a20 03bd 2d09 453e 89d6 2e3e
000001e0: 8d7b 3cbd a817 a8bd e03b f13d b9ee fabd
000001f0: 11b2 22bd af4f 3b3e 528c ef3d 419b 3f3c
00000200: 5eb9 793e 9135 f63c 9c5e 64be 301e 973d
00000210: 8986 5a3c 4b13 05be b397 43be 0be1 15be
00000220: 5592 61be e1d3 013e 8d91 d0bd 018e 1dbe
00000230: be06 d43d 0d21 83be 120d 913d 1a8d 1d3e
00000240: c442 38bd 388c ce3d 702c 0b3e e502 0ebe
00000250: daa9 1fbe 2af8 09bd 2843 69be fbaf 84bd
00000260: 870f 1abd f2b9 20bd a4e4 393e 1729 68be
00000270: c00a e43d 6170 20be cae5 51bd c547 133e
00000280: 4caf 073e 06b7 61be b635 f23d 46ca 803e
00000290: 2def 5ebd f5db 00be 54e1 ee3d cc56 2fbe
000002a0: acc0 d1bd 4aa5 79bd f734 2f3d 2211 783b
000002b0: cd3d 0bbd 6b2f 5abe c53f 073e 85ec 393d
000002c0: 1548 d4bd 7b5e b7bd cb73 323e ce9f a23d
000002d0: 8740 5fbe 8344 84be 97e4 7abe 7d13 20be
000002e0: ff47 3b3e e29a 053e ea48 2dbd 761c 2d3e
000002f0: 78b3 4a3e 8f7e b03b 3e06 91be f51b f03d
00000300: 68b0 eabb 04c5 e4bd 352f 82be e61a b839
00000310: a516 45be 553f f2bd 760a 14be 7c54 2f3e
00000320: 6328 52be abea ce3d a3d0 3abd 5fae 2e3e
00000330: 88b2 6d3c 4c55 b3bc 84ae 193e c1d7 a33d
00000340: 9ea5 ee3d c8e2 1bbe 9701 92bd 9b3f 3a3e
00000350: 85b2 2f3d 1f2d 0c3c d12d 8f3d dd94 54be
00000360: 0191 4abe 02bd 30be 1248 163e bc8a 88be
00000370: 70ef 093e 8f6c 5ebd 9e05 78be b446 0bbe
00000380: 1197 4c3e 4980 c4bd 08fd 2e3e d396 00be
00000390: 1354 6fbd b403 0abd 2be8 98be 7631 69be
000003a0: 0fee 6bbe d325 403e 2030 fdbd 2721 353e
000003b0: 3662 78be 5d4e b83c 686d 9c3d ea14 193d
000003c0: 2af5 ca3c ce85 493e 27ad e13d 4739 e7bd
000003d0: afd6 f1bd eb7f 89bd decc 103e 6474 88be
000003e0: f976 0f3d c277 1dbe 7d65 233e 658a 6dbe
000003f0: 4340 f4bd c6dc 213e fb1f 633e 8f05 86be

bias f4 [10]
-0.18570755 0.13970459 -0.09179872 -0.076588646 0.054750342 0.16699159 0.09049759 -0.028286975
-0.1035957 0.07042532
00000000: 1f2a 3ebe b80e 0f3e f800 bcbd 82da 9cbd
00000010: e541 603d d8ff 2a3e cd56 b93d 16ba e7bc
00000020: fb29 d4bd 263b 903d
